[2025-02-02 18:28:53,220][trainer.py][line:23][INFO] DataParallel(
  (module): LITFormer(
    (firstconv): SingleConv(
      (conv): LITFormerBlock(
        (activation): LeakyReLU(negative_slope=0.01, inplace=True)
        (conv_1x3x3): Conv3d(1, 32, kernel_size=(1, 1, 1), stride=(1, 1, 1))
        (conv_3x1x1): Conv3d(1, 32, kernel_size=(1, 1, 1), stride=(1, 1, 1))
        (shortcut): Conv3d(1, 32, kernel_size=(1, 1, 1), stride=(1, 1, 1), bias=False)
      )
      (activation): LeakyReLU(negative_slope=0.01, inplace=True)
    )
    (enc1): DoubleConv(
      (double_conv): Sequential(
        (0): LITFormerBlock(
          (activation): LeakyReLU(negative_slope=0.01, inplace=True)
          (attention_s): eMSM_I(
            (qkv): Conv2d(32, 96, kernel_size=(1, 1), stride=(1, 1), bias=False)
            (qkv_dwconv): Conv2d(96, 96, kernel_size=(3, 3), stride=(1, 1), padding=(1, 1), groups=96, bias=False)
            (project_out): Conv2d(32, 32, kernel_size=(1, 1), stride=(1, 1), bias=False)
          )
          (conv_1x3x3): Conv3d(32, 32, kernel_size=(1, 1, 1), stride=(1, 1, 1))
          (attention_t): eMSM_T(
            (to_q): Linear(in_features=32, out_features=32, bias=False)
            (to_k): Linear(in_features=32, out_features=32, bias=False)
            (to_v): Linear(in_features=32, out_features=32, bias=False)
            (position_embedding): PositionalEncoding(
              (dropout): Dropout(p=0.1, inplace=False)
            )
            (project_out): Sequential(
              (0): Linear(in_features=32, out_features=32, bias=True)
              (1): Dropout(p=0.0, inplace=False)
            )
          )
          (conv_3x1x1): Conv3d(32, 32, kernel_size=(1, 1, 1), stride=(1, 1, 1))
        )
        (1): LeakyReLU(negative_slope=0.01, inplace=True)
        (2): LITFormerBlock(
          (activation): LeakyReLU(negative_slope=0.01, inplace=True)
          (conv_1x3x3): Conv3d(32, 64, kernel_size=(1, 1, 1), stride=(1, 1, 1))
          (conv_3x1x1): Conv3d(32, 64, kernel_size=(1, 1, 1), stride=(1, 1, 1))
          (shortcut): Conv3d(32, 64, kernel_size=(1, 1, 1), stride=(1, 1, 1), bias=False)
        )
        (3): LeakyReLU(negative_slope=0.01, inplace=True)
      )
    )
    (enc2): Down(
      (encoder): Sequential(
        (0): MaxPool3d(kernel_size=(1, 2, 2), stride=(1, 2, 2), padding=0, dilation=1, ceil_mode=False)
        (1): DoubleConv(
          (double_conv): Sequential(
            (0): LITFormerBlock(
              (activation): LeakyReLU(negative_slope=0.01, inplace=True)
              (attention_s): eMSM_I(
                (qkv): Conv2d(64, 192, kernel_size=(1, 1), stride=(1, 1), bias=False)
                (qkv_dwconv): Conv2d(192, 192, kernel_size=(3, 3), stride=(1, 1), padding=(1, 1), groups=192, bias=False)
                (project_out): Conv2d(64, 64, kernel_size=(1, 1), stride=(1, 1), bias=False)
              )
              (conv_1x3x3): Conv3d(64, 64, kernel_size=(1, 1, 1), stride=(1, 1, 1))
              (attention_t): eMSM_T(
                (to_q): Linear(in_features=64, out_features=64, bias=False)
                (to_k): Linear(in_features=64, out_features=64, bias=False)
                (to_v): Linear(in_features=64, out_features=64, bias=False)
                (position_embedding): PositionalEncoding(
                  (dropout): Dropout(p=0.1, inplace=False)
                )
                (project_out): Sequential(
                  (0): Linear(in_features=64, out_features=64, bias=True)
                  (1): Dropout(p=0.0, inplace=False)
                )
              )
              (conv_3x1x1): Conv3d(64, 64, kernel_size=(1, 1, 1), stride=(1, 1, 1))
            )
            (1): LeakyReLU(negative_slope=0.01, inplace=True)
            (2): LITFormerBlock(
              (activation): LeakyReLU(negative_slope=0.01, inplace=True)
              (conv_1x3x3): Conv3d(64, 128, kernel_size=(1, 1, 1), stride=(1, 1, 1))
              (conv_3x1x1): Conv3d(64, 128, kernel_size=(1, 1, 1), stride=(1, 1, 1))
              (shortcut): Conv3d(64, 128, kernel_size=(1, 1, 1), stride=(1, 1, 1), bias=False)
            )
            (3): LeakyReLU(negative_slope=0.01, inplace=True)
          )
        )
      )
    )
    (enc3): Down(
      (encoder): Sequential(
        (0): MaxPool3d(kernel_size=(1, 2, 2), stride=(1, 2, 2), padding=0, dilation=1, ceil_mode=False)
        (1): DoubleConv(
          (double_conv): Sequential(
            (0): LITFormerBlock(
              (activation): LeakyReLU(negative_slope=0.01, inplace=True)
              (attention_s): eMSM_I(
                (qkv): Conv2d(128, 384, kernel_size=(1, 1), stride=(1, 1), bias=False)
                (qkv_dwconv): Conv2d(384, 384, kernel_size=(3, 3), stride=(1, 1), padding=(1, 1), groups=384, bias=False)
                (project_out): Conv2d(128, 128, kernel_size=(1, 1), stride=(1, 1), bias=False)
              )
              (conv_1x3x3): Conv3d(128, 128, kernel_size=(1, 1, 1), stride=(1, 1, 1))
              (attention_t): eMSM_T(
                (to_q): Linear(in_features=128, out_features=128, bias=False)
                (to_k): Linear(in_features=128, out_features=128, bias=False)
                (to_v): Linear(in_features=128, out_features=128, bias=False)
                (position_embedding): PositionalEncoding(
                  (dropout): Dropout(p=0.1, inplace=False)
                )
                (project_out): Sequential(
                  (0): Linear(in_features=128, out_features=128, bias=True)
                  (1): Dropout(p=0.0, inplace=False)
                )
              )
              (conv_3x1x1): Conv3d(128, 128, kernel_size=(1, 1, 1), stride=(1, 1, 1))
            )
            (1): LeakyReLU(negative_slope=0.01, inplace=True)
            (2): LITFormerBlock(
              (activation): LeakyReLU(negative_slope=0.01, inplace=True)
              (conv_1x3x3): Conv3d(128, 256, kernel_size=(1, 1, 1), stride=(1, 1, 1))
              (conv_3x1x1): Conv3d(128, 256, kernel_size=(1, 1, 1), stride=(1, 1, 1))
              (shortcut): Conv3d(128, 256, kernel_size=(1, 1, 1), stride=(1, 1, 1), bias=False)
            )
            (3): LeakyReLU(negative_slope=0.01, inplace=True)
          )
        )
      )
    )
    (enc4): LastDown(
      (encoder): Sequential(
        (0): MaxPool3d(kernel_size=(1, 2, 2), stride=(1, 2, 2), padding=0, dilation=1, ceil_mode=False)
        (1): LITFormerBlock(
          (activation): LeakyReLU(negative_slope=0.01, inplace=True)
          (attention_s): eMSM_I(
            (qkv): Conv2d(256, 768, kernel_size=(1, 1), stride=(1, 1), bias=False)
            (qkv_dwconv): Conv2d(768, 768, kernel_size=(3, 3), stride=(1, 1), padding=(1, 1), groups=768, bias=False)
            (project_out): Conv2d(256, 256, kernel_size=(1, 1), stride=(1, 1), bias=False)
          )
          (conv_1x3x3): Conv3d(256, 512, kernel_size=(1, 1, 1), stride=(1, 1, 1))
          (attention_t): eMSM_T(
            (to_q): Linear(in_features=256, out_features=256, bias=False)
            (to_k): Linear(in_features=256, out_features=256, bias=False)
            (to_v): Linear(in_features=256, out_features=256, bias=False)
            (position_embedding): PositionalEncoding(
              (dropout): Dropout(p=0.1, inplace=False)
            )
            (project_out): Sequential(
              (0): Linear(in_features=256, out_features=256, bias=True)
              (1): Dropout(p=0.0, inplace=False)
            )
          )
          (conv_3x1x1): Conv3d(256, 512, kernel_size=(1, 1, 1), stride=(1, 1, 1))
          (shortcut): Conv3d(256, 512, kernel_size=(1, 1, 1), stride=(1, 1, 1), bias=False)
        )
        (2): LeakyReLU(negative_slope=0.01, inplace=True)
        (3): LITFormerBlock(
          (activation): LeakyReLU(negative_slope=0.01, inplace=True)
          (conv_1x3x3): Conv3d(512, 256, kernel_size=(1, 1, 1), stride=(1, 1, 1))
          (conv_3x1x1): Conv3d(512, 256, kernel_size=(1, 1, 1), stride=(1, 1, 1))
          (shortcut): Conv3d(512, 256, kernel_size=(1, 1, 1), stride=(1, 1, 1), bias=False)
        )
        (4): LeakyReLU(negative_slope=0.01, inplace=True)
      )
    )
    (dec1): Up(
      (up): Upsample(scale_factor=(1.0, 2.0, 2.0), mode='trilinear')
      (conv): DoubleConv(
        (double_conv): Sequential(
          (0): LITFormerBlock(
            (activation): LeakyReLU(negative_slope=0.01, inplace=True)
            (attention_s): eMSM_I(
              (qkv): Conv2d(256, 768, kernel_size=(1, 1), stride=(1, 1), bias=False)
              (qkv_dwconv): Conv2d(768, 768, kernel_size=(3, 3), stride=(1, 1), padding=(1, 1), groups=768, bias=False)
              (project_out): Conv2d(256, 256, kernel_size=(1, 1), stride=(1, 1), bias=False)
            )
            (conv_1x3x3): Conv3d(256, 256, kernel_size=(1, 1, 1), stride=(1, 1, 1))
            (attention_t): eMSM_T(
              (to_q): Linear(in_features=256, out_features=256, bias=False)
              (to_k): Linear(in_features=256, out_features=256, bias=False)
              (to_v): Linear(in_features=256, out_features=256, bias=False)
              (position_embedding): PositionalEncoding(
                (dropout): Dropout(p=0.1, inplace=False)
              )
              (project_out): Sequential(
                (0): Linear(in_features=256, out_features=256, bias=True)
                (1): Dropout(p=0.0, inplace=False)
              )
            )
            (conv_3x1x1): Conv3d(256, 256, kernel_size=(1, 1, 1), stride=(1, 1, 1))
          )
          (1): LeakyReLU(negative_slope=0.01, inplace=True)
          (2): LITFormerBlock(
            (activation): LeakyReLU(negative_slope=0.01, inplace=True)
            (conv_1x3x3): Conv3d(256, 128, kernel_size=(1, 1, 1), stride=(1, 1, 1))
            (conv_3x1x1): Conv3d(256, 128, kernel_size=(1, 1, 1), stride=(1, 1, 1))
            (shortcut): Conv3d(256, 128, kernel_size=(1, 1, 1), stride=(1, 1, 1), bias=False)
          )
          (3): LeakyReLU(negative_slope=0.01, inplace=True)
        )
      )
    )
    (dec2): Up(
      (up): Upsample(scale_factor=(1.0, 2.0, 2.0), mode='trilinear')
      (conv): DoubleConv(
        (double_conv): Sequential(
          (0): LITFormerBlock(
            (activation): LeakyReLU(negative_slope=0.01, inplace=True)
            (attention_s): eMSM_I(
              (qkv): Conv2d(128, 384, kernel_size=(1, 1), stride=(1, 1), bias=False)
              (qkv_dwconv): Conv2d(384, 384, kernel_size=(3, 3), stride=(1, 1), padding=(1, 1), groups=384, bias=False)
              (project_out): Conv2d(128, 128, kernel_size=(1, 1), stride=(1, 1), bias=False)
            )
            (conv_1x3x3): Conv3d(128, 128, kernel_size=(1, 1, 1), stride=(1, 1, 1))
            (attention_t): eMSM_T(
              (to_q): Linear(in_features=128, out_features=128, bias=False)
              (to_k): Linear(in_features=128, out_features=128, bias=False)
              (to_v): Linear(in_features=128, out_features=128, bias=False)
              (position_embedding): PositionalEncoding(
                (dropout): Dropout(p=0.1, inplace=False)
              )
              (project_out): Sequential(
                (0): Linear(in_features=128, out_features=128, bias=True)
                (1): Dropout(p=0.0, inplace=False)
              )
            )
            (conv_3x1x1): Conv3d(128, 128, kernel_size=(1, 1, 1), stride=(1, 1, 1))
          )
          (1): LeakyReLU(negative_slope=0.01, inplace=True)
          (2): LITFormerBlock(
            (activation): LeakyReLU(negative_slope=0.01, inplace=True)
            (conv_1x3x3): Conv3d(128, 64, kernel_size=(1, 1, 1), stride=(1, 1, 1))
            (conv_3x1x1): Conv3d(128, 64, kernel_size=(1, 1, 1), stride=(1, 1, 1))
            (shortcut): Conv3d(128, 64, kernel_size=(1, 1, 1), stride=(1, 1, 1), bias=False)
          )
          (3): LeakyReLU(negative_slope=0.01, inplace=True)
        )
      )
    )
    (dec3): Up(
      (up): Upsample(scale_factor=(1.0, 2.0, 2.0), mode='trilinear')
      (conv): DoubleConv(
        (double_conv): Sequential(
          (0): LITFormerBlock(
            (activation): LeakyReLU(negative_slope=0.01, inplace=True)
            (attention_s): eMSM_I(
              (qkv): Conv2d(64, 192, kernel_size=(1, 1), stride=(1, 1), bias=False)
              (qkv_dwconv): Conv2d(192, 192, kernel_size=(3, 3), stride=(1, 1), padding=(1, 1), groups=192, bias=False)
              (project_out): Conv2d(64, 64, kernel_size=(1, 1), stride=(1, 1), bias=False)
            )
            (conv_1x3x3): Conv3d(64, 64, kernel_size=(1, 1, 1), stride=(1, 1, 1))
            (attention_t): eMSM_T(
              (to_q): Linear(in_features=64, out_features=64, bias=False)
              (to_k): Linear(in_features=64, out_features=64, bias=False)
              (to_v): Linear(in_features=64, out_features=64, bias=False)
              (position_embedding): PositionalEncoding(
                (dropout): Dropout(p=0.1, inplace=False)
              )
              (project_out): Sequential(
                (0): Linear(in_features=64, out_features=64, bias=True)
                (1): Dropout(p=0.0, inplace=False)
              )
            )
            (conv_3x1x1): Conv3d(64, 64, kernel_size=(1, 1, 1), stride=(1, 1, 1))
          )
          (1): LeakyReLU(negative_slope=0.01, inplace=True)
          (2): LITFormerBlock(
            (activation): LeakyReLU(negative_slope=0.01, inplace=True)
            (conv_1x3x3): Conv3d(64, 32, kernel_size=(1, 1, 1), stride=(1, 1, 1))
            (conv_3x1x1): Conv3d(64, 32, kernel_size=(1, 1, 1), stride=(1, 1, 1))
            (shortcut): Conv3d(64, 32, kernel_size=(1, 1, 1), stride=(1, 1, 1), bias=False)
          )
          (3): LeakyReLU(negative_slope=0.01, inplace=True)
        )
      )
    )
    (out1): SingleConv(
      (conv): LITFormerBlock(
        (activation): LeakyReLU(negative_slope=0.01, inplace=True)
        (conv_1x3x3): Conv3d(32, 32, kernel_size=(1, 1, 1), stride=(1, 1, 1))
        (conv_3x1x1): Conv3d(32, 32, kernel_size=(1, 1, 1), stride=(1, 1, 1))
      )
      (activation): LeakyReLU(negative_slope=0.01, inplace=True)
    )
    (depth_up): Upsample(scale_factor=(2.5, 1.0, 1.0), mode='trilinear')
    (out2): SingleConv(
      (conv): LITFormerBlock(
        (activation): LeakyReLU(negative_slope=0.01, inplace=True)
        (conv_1x3x3): Conv3d(32, 1, kernel_size=(1, 1, 1), stride=(1, 1, 1))
        (conv_3x1x1): Conv3d(32, 1, kernel_size=(1, 1, 1), stride=(1, 1, 1))
        (shortcut): Conv3d(32, 1, kernel_size=(1, 1, 1), stride=(1, 1, 1), bias=False)
      )
      (activation): LeakyReLU(negative_slope=0.01, inplace=True)
    )
  )
)
[2025-02-02 18:28:53,225][trainer.py][line:24][INFO] start training!
[2025-02-02 18:29:51,918][trainer.py][line:135][INFO] val:Epoch: [0/50],epoch_loss: 2.651687, val_psnr3d: 1.6007, val_ssim3d: 0.5324,val_ssim2d: 0.0630,test_rmse: 0.851367
[2025-02-02 18:30:50,130][trainer.py][line:135][INFO] val:Epoch: [1/50],epoch_loss: 2.651687, val_psnr3d: 1.6007, val_ssim3d: 0.5324,val_ssim2d: 0.0630,test_rmse: 0.851367
…
